models/pos_model.pth (torch, 623511 bytes, 13 tensors)

weight f4 [868, 100]
000000 09 2e 1d bf 56 f3 50 3f bc d5 e0 be 27 b2 cc 3d
       -0.6139837 0.816213 -0.43913066 0.09994917
000010 f5 c1 be 3e 26 f5 92 3f 9e ad 2e bf a8 53 7c be
       0.37257352 1.1481063 -0.6823367 -0.24641287
000020 e3 a4 85 bf db df 85 3f e1 ee 01 3e 59 d8 2c bf
       -1.0440944 1.045894 0.12688781 -0.6751762
000030 32 d7 57 3f 40 87 b1 be 6d 11 49 be c1 e3 2b c0
       0.84312737 -0.346735 -0.19635554 -2.685776
000040 fc 35 8c bf 3a 49 0f 3f 83 62 72 bf d2 b8 a9 3f
       -1.0953975 0.5597111 -0.94681567 1.3259528
000050 0a 54 99 3f 53 85 c1 bf f0 f7 3b 3f 69 7b 1c be
       1.1978772 -1.5118812 0.734252 -0.15281452
000060 a6 84 42 bf 11 47 3a 3f 25 44 28 3e c8 3a 24 be
       -0.75983655 0.7276469 0.16432245 -0.16038048
000070 90 50 8a be 28 3f dd bd a6 b6 e4 3e d8 c4 df 3e
       -0.2701459 -0.10803062 0.446706 0.43704867
000080 a9 ff 3d 3f 40 8e 08 3f fd 85 44 bf 34 82 91 bf
       0.7421823 0.53342056 -0.7676695 -1.136786
000090 ce fa f3 3e bb e7 ec 3d 40 82 a0 bd 15 a3 62 3f
       0.47652286 0.115676366 -0.07837343 0.88530093
0000a0 1c 74 2a 3f ee 03 b4 3f 5d d4 14 bf d8 06 8f 3c
       0.6658342 1.4063699 -0.5813654 0.017459318
0000b0 0b f4 d6 be b5 06 5a 3c ba 8b 28 bf 0a f2 63 bf
       -0.41983065 0.013307263 -0.65838206 -0.890412
0000c0 6c 1e 78 bf 6d dd c9 3e ea 46 cd bf 4b 34 e5 3f
       -0.9692142 0.39426747 -1.6037266 1.7906584
0000d0 20 1b 3c 3e b9 40 98 bf 96 38 24 3f fa 9a e8 3e
       0.18369722 -1.1894752 0.64148843 0.45430738
0000e0 8e e9 95 3d 29 d2 6b 3f 9b d2 22 be 13 df d8 3f
       0.07319938 0.92117554 -0.15900652 1.6943077
0000f0 51 2d 6f 3f 18 0b 7c bf 28 aa 8e be 77 34 45 be
       0.9342852 -0.9845443 -0.27864194 -0.19258295
000100 01 48 c5 bf 99 26 f2 3e 0c 8f dc be fc 0d fa bf
       -1.5412599 0.47295073 -0.43077886 -1.9535518
000110 eb 98 ba 3f d5 e4 03 3f 7f 29 02 bf 01 aa 8e 3f
       1.4577917 0.51521045 -0.5084457 1.1145631
000120 25 f0 86 bf 04 f9 9b bf a9 d1 32 3f 33 7f ea bf
       -1.0542036 -1.2185369 0.69851166 -1.8320068
000130 d8 04 03 3e c6 c9 49 bf 59 3d 82 bf 6e 3c a6 bf
       0.12794816 -0.78823507 -1.0174972 -1.2987192
000140 9a 4d a0 be 92 d6 8c bf c6 a9 ef bd 57 41 82 bc
       -0.31309205 -1.1002982 -0.117023036 -0.015900297
000150 f7 d7 53 bf 99 ad 74 3f 38 1c 9b be 6c ec ed be
       -0.8275141 0.9557739 -0.30294967 -0.46469438
000160 02 0a 14 40 57 0f d9 bf 7b e2 70 3d 76 b5 be bf
       2.3131108 -1.6957806 0.05880974 -1.4899127
000170 ac 68 3c 3f a9 31 92 be df 94 b2 3e ce 60 23 3f
       0.73597217 -0.28553513 0.34879205 0.6381959
000180 8e 3a 19 3f 40 e3 21 bf 83 e6 eb bd c8 82 1d be
       0.5985497 -0.6323738 -0.11518576 -0.1538192
000190 3b 40 12 3f d9 4e 27 3f a5 c5 ab bf f6 37 80 bf
       0.5712926 0.65354687 -1.3419691 -1.0017078
0001a0 b6 6a 64 3f 5d 1c 11 3f fe 0b 35 40 08 3c 90 bf
       0.8922533 0.56683904 2.828857 -1.126832
0001b0 74 cb 94 be 6d 86 4c bf 54 7a 4e 3f a2 e3 3e bf
       -0.29061472 -0.7989262 0.8065541 -0.7456609
0001c0 0e 17 08 3f 77 45 38 be dd dc 27 bf 00 01 51 3f
       0.5316018 -0.17995249 -0.65571386 0.8164215
0001d0 c9 69 36 bf 94 7c 3d 3f 54 38 a4 3f f4 25 04 3f
       -0.71255165 0.74018216 1.282969 0.5162041
0001e0 c0 fb 11 40 b7 90 1a 3f eb 6f d0 bc e4 07 a6 be
       2.2809906 0.6037707 -0.025443992 -0.32427895
0001f0 7a 2e 31 40 5f 84 da 3f 07 07 94 be 66 4a aa bf
       2.7684617 1.7071646 -0.2891161 -1.3303955
000200 67 3f 0d 3e 05 69 11 bf 00 ae 8d be 36 ff 6f 3f
       0.13793717 -0.5680087 -0.27671814 0.93748796
000210 51 66 49 3f dd e9 c6 bf 69 1d 91 bf 35 44 db 3e
       0.7867175 -1.554012 -1.13371 0.42825475
000220 b6 b4 fa 3f 1d 95 82 3f 18 2b 00 3f f0 a4 3d bf
       1.9586399 1.0201756 0.50065756 -0.740798
000230 37 d4 01 3e ce df fb 3e 4a 89 27 40 c8 f0 c7 be
       0.1267861 0.49194187 2.6177545 -0.3905089
000240 4e 0b 6c be db 25 81 bf 7b d3 2e be f6 f9 9d 3f
       -0.23051187 -1.0089678 -0.17072861 1.2341907
000250 1b 6f 89 be ec 92 2a 40 24 95 52 3d bc 59 89 3f
       -0.2684258 2.6652174 0.051411763 1.073051
000260 fb 95 62 3e 24 93 e0 3f 58 c7 72 be 18 ee f0 3e
       0.22127526 1.7544904 -0.23708856 0.4705665
000270 cb 75 82 bf 8e 3e 87 bf d4 84 9d 3f d4 c4 bc 3e
       -1.0192198 -1.0565965 1.2306161 0.36868918
000280 ef b3 96 3f bc 35 07 c0 ec d8 ed be 66 9d 8b bf
       1.1773661 -2.1126547 -0.4645456 -1.0907409
000290 84 f5 ec 3d 2d a9 b7 bf c7 26 a0 bf 25 3a 51 bf
       0.11570266 -1.4348503 -1.2511834 -0.81729347
0002a0 e6 d8 0c bf 57 7d 13 bf a7 32 26 bf 67 47 af be
       -0.5501846 -0.5761313 -0.6492104 -0.34234163
0002b0 dd 85 ec 3d 1a 40 03 3f 21 06 76 bf 22 88 6d 3f
       0.1154897 0.51269686 -0.961031 0.9278585
0002c0 72 52 f4 3f 5c 5b 9d bf 3c e9 78 bf f0 77 be 3b
       1.908766 -1.2293506 -0.9723089 0.0058126375
0002d0 04 fd b9 bd 58 28 33 3f 72 bc 6a bd 08 5b 83 3f
       -0.09081462 0.69983435 -0.05730862 1.0262156
0002e0 b0 be 58 bf 00 0f ec 3d 2d 70 05 3f 97 4f 10 bf
       -0.84665966 0.115262985 0.5212429 -0.56371444
0002f0 c1 f3 0a 3e e9 eb e1 3e a1 0e 07 c0 e5 bd 69 3d
       0.13569547 0.44125298 -2.1102679 0.057065863
000300 63 5a 7a 3e a1 fc f8 bf c8 ee 6d 3f 30 1d f9 3e
       0.24448542 -1.9452096 0.92942476 0.4865508
000310 ae a9 bd 3e a2 a1 25 bf 98 ed 85 bf a3 14 d0 bf
       0.37043518 -0.6469976 -1.0463133 -1.6256298
000320 67 c5 00 3f be 8d 75 3e 70 87 8d be fe fb a3 bf
       0.5030121 0.23979852 -0.27642393 -1.2811277
000330 2f e0 c4 3f 17 4d 96 be f2 20 8c 3e 2b 8b 65 3f
       1.5380915 -0.2935569 0.27368885 0.8966548
000340 a9 a9 dc bf fb 85 61 bd bd 2c 9d bf d1 bd 0c bf
       -1.7239276 -0.055059414 -1.2279278 -0.54977137
000350 da 48 07 bd 20 55 84 3d 64 1f 19 bf 1c eb 2e be
       -0.03302846 0.06461549 -0.59813523 -0.17081875
000360 1b b6 54 bf ef 98 a7 3e fb 82 a5 3e f1 53 a4 bf
       -0.8309037 0.32733867 0.32326493 -1.2838117
000370 92 2e 41 bf 0f 1a 12 3d 1e e9 da 3e c1 fd f6 be
       -0.75461686 0.035669383 0.4275598 -0.48240474
000380 d5 8e ae be b4 92 9a 3e 83 5a 43 bf 0c 79 bd 3f
       -0.34093347 0.3019005 -0.76309985 1.4802566
000390 3f 80 2f 3f 14 b7 da 3f 31 d8 f5 bd 2b 40 7a bf
       0.68555063 1.7087121 -0.12004126 -0.9775416
0003a0 7e fd 80 bf 6b 5e 98 bf 62 3b 6d bf c5 79 23 bf
       -1.007736 -1.1903814 -0.92668736 -0.6385768
0003b0 56 30 c5 be e7 31 17 bf a5 0e 84 3f 9d 5a 04 40
       -0.3851344 -0.5906052 1.0316969 2.0680306
0003c0 90 a6 a6 be 7b 2d b8 3f e6 af 0b be 22 89 d0 3f
       -0.32548952 1.438888 -0.13641319 1.629185
0003d0 72 5f 03 bd a2 13 80 bd 8e 30 1a 3f a1 27 d7 be
       -0.032073446 -0.06253745 0.6023034 -0.42022422
0003e0 93 22 45 be d0 8a e0 3e 63 ff 59 bf 02 ab 8e be
       -0.1925147 0.43855906 -0.85155314 -0.27864844
0003f0 fe 25 32 3c 61 fb e3 bf 53 70 e9 3f 91 90 aa 3e
       0.010873316 -1.781109 1.8237404 0.3331342

weight_ih_l0 f4 [200, 100]
000000 e1 69 5f bd e5 03 20 3c dc 59 e5 bd a2 02 4a be
       -0.054544333 0.0097665535 -0.1119878 -0.19727567
000010 7e 66 23 be c7 54 0f 3d 86 47 51 be 30 d4 9b 3c
       -0.15957066 0.03499296 -0.2043744 0.019022077
000020 45 b5 07 be bc 65 cb bd 3e 51 96 3b ed 88 b8 bd
       -0.13252743 -0.09931514 0.0045873215 -0.090104915
000030 a2 99 ed 3c 9b 7f bb ba 14 d8 84 bd ea b9 05 3e
       0.029003922 -0.0014304997 -0.06486526 0.13059202
000040 4a 93 ae bc 25 8d 03 be 51 b0 36 be 4d 66 b5 3d
       -0.021310467 -0.12846811 -0.17840697 0.08857403
000050 75 d5 c2 bd 91 15 71 3d 4f 16 9d 3c b0 09 14 3e
       -0.0951337 0.058858458 0.019175677 0.1445682
000060 bd 88 0a 3d 54 44 8a bd ce 63 4b 3d 29 45 41 3d
       0.03382181 -0.06751314 0.049655728 0.047185097
000070 e5 28 9b bd c3 e0 3a be c5 6b 88 3d 39 25 5a bd
       -0.075761594 -0.18249802 0.066611804 -0.053258155
000080 62 c6 16 3e ee 2c f0 3d 54 fc 02 3e 8a 78 92 bc
       0.14724115 0.1172732 0.12791568 -0.017879743
000090 19 6e 00 3e 33 b7 10 3e e8 89 d1 3d 43 fc 89 3d
       0.12541999 0.14132385 0.10231382 0.06737568
0000a0 96 f2 be bd 5b 21 0e bd ad 17 5a 3d 6b 09 fd bd
       -0.09323613 -0.03469978 0.053245235 -0.12355312
0000b0 bf 65 59 bc f7 f4 f3 3c 7b 7a 92 bc c0 4f 67 3e
       -0.013268887 0.029779894 -0.017880669 0.22589016
0000c0 77 a0 09 3e 1f 40 b4 3d ab 18 82 3c 22 01 43 be
       0.13440119 0.08801293 0.015880903 -0.19043401
0000d0 42 7a 58 3d e6 3d 23 3e ca 18 8b 3e 9d 96 6e bc
       0.05285097 0.15941581 0.2716735 -0.014562276
0000e0 f7 ff 77 3c 18 4f 1c be 28 f8 f6 bd c3 9a a9 3d
       0.01513671 -0.15264547 -0.12059051 0.082814716
0000f0 ed 43 b9 bd 50 8e 48 bd 69 cc 9d 3d b3 37 4c 3d
       -0.09046159 -0.048963845 0.07705004 0.049857806
000100 43 98 b5 3d 77 85 d4 3c ac 03 9f bd 55 ec 6d bd
       0.08866932 0.025942547 -0.07764372 -0.058086712
000110 e3 a4 03 bd e0 ef a4 bd 7b 9d 23 bd 54 15 2f 3d
       -0.03213967 -0.08053565 -0.039945107 0.04274495
000120 2b a0 24 3e e0 fb e5 3d 03 1b 2b 3d da 5b 92 3c
       0.16076724 0.11229682 0.041773807 0.017866064
000130 e5 9d 7f bd a9 c2 8f bd 25 66 ed 3d e8 72 5e bc
       -0.06240644 -0.0701955 0.11591748 -0.0135772005
000140 2f af 90 be e2 56 13 be d8 b0 70 3c 5d dd 4a 3d
       -0.28258654 -0.14388612 0.0146906 0.049527515
000150 6a 15 a1 bd 3b 30 93 bd 95 c6 82 be e8 03 93 bc
       -0.078654125 -0.071869336 -0.2554213 -0.017946199
000160 9c 00 40 3d 8d 8d 85 3d 94 74 cc bd 82 86 2d 3e
       0.04687558 0.06521139 -0.09983173 0.16945842
000170 96 d4 20 bd 3f de 1e bd 60 19 ba 3c dc ff c2 bc
       -0.039265238 -0.03878617 0.022717178 -0.023803644
000180 da f0 1d 3e e9 9d 28 3d f9 eb 9d bd ba d3 2a 3e
       0.15423909 0.04116622 -0.07711024 0.1668233
000190 f4 09 b7 3d 0a f4 93 bd c9 6c 55 be 46 6e 50 be
       0.08937445 -0.07224281 -0.2084228 -0.20354566
0001a0 5a 4d 2d 3e f4 e5 9a be 40 22 a3 3d ff d3 ec bd
       0.16924039 -0.30253565 0.07965517 -0.115638725
0001b0 c4 6d b7 bd 38 57 a8 bd 13 f2 0c be a5 44 14 be
       -0.08956483 -0.08219761 -0.13764219 -0.14479311
0001c0 dc a9 79 3e 03 5c 97 3b 29 1a af bd aa 5d 35 bd
       0.24381202 0.004619123 -0.085499115 -0.044278778
0001d0 81 d6 86 3d 0a 67 d6 bd 66 f5 f8 bd 3b 97 52 bd
       0.06583882 -0.10468872 -0.12156181 -0.051413756
0001e0 c6 82 69 3e 63 b9 10 be 83 b9 3c be ab 84 fb 3d
       0.22803792 -0.1413322 -0.18430142 0.12281164
0001f0 0d 2d 5d 3e f5 42 6b 3e 26 b3 e4 bd 97 2a 31 3e
       0.21599217 0.22974761 -0.11166982 0.17301403
000200 d4 8b 8f bd db 02 00 3e 54 fd fa bd 73 f3 88 3d
       -0.07009092 0.1250109 -0.1225535 0.06687059
000210 d2 e6 32 3e 72 31 6b 3e c3 35 9f bb 95 8b 35 be
       0.17470863 0.2296808 -0.004858704 -0.17729028
000220 f2 28 8d bd cb 54 31 bd c4 ca 1f be 23 a3 cd 3d
       -0.06892575 -0.043293756 -0.15604693 0.100408815
000230 48 45 5a 3e 7a 77 36 bd aa 32 37 3e ac 12 60 3e
       0.21315491 -0.044547535 0.1789042 0.21882123
000240 9a df 25 be e9 5e 4c 3e 32 40 20 3d dc 19 e3 3b
       -0.16198578 0.1995808 0.03912372 0.006930573
000250 28 31 22 bd ff 8b 18 3e e1 ff b5 bd dd 39 71 3e
       -0.03959766 0.14897154 -0.08886696 0.2355723
000260 a3 ac 36 3e 75 67 a0 3e e9 f8 0e bd 92 b5 fb 3c
       0.17839293 0.3132893 -0.034905348 0.030726228
000270 23 a9 f9 bd 41 58 37 be 68 c7 3e 3c eb a4 7b 3b
       -0.121904634 -0.1790476 0.011644222 0.003839786
000280 d2 96 2b be 2a 60 91 3e 12 cb 31 be b7 9f 79 bd
       -0.16756752 0.2839368 -0.17362621 -0.06094333
000290 ef f5 94 bd 32 62 e8 bc af 01 33 3d e5 e9 36 bc
       -0.072734706 -0.028367136 0.043702777 -0.011164163
0002a0 73 8f 12 be ef 10 4b be 12 2f 4f be 7a 56 80 3d
       -0.14312534 -0.19830678 -0.202328 0.06266494
0002b0 83 24 34 3d b7 6c b8 3d b3 92 6d 3d 7d c2 8c 3c
       0.043980133 0.09005111 0.05800123 0.017182583
0002c0 d5 7f a1 bd 09 f4 89 3d 29 ef 37 bd 5b 22 9d 3e
       -0.0788571 0.06735999 -0.044905815 0.30690274
0002d0 c0 ef 5e 3d 4e 72 11 3e 6a 2f 24 bd fa c5 2f 3d
       0.054427862 0.1420376 -0.04008428 0.042913415
0002e0 ad 81 90 3e 9d da 5d 3e 3f 6c 97 be 6a 98 85 bd
       0.28223935 0.21665426 -0.29574773 -0.06523211
0002f0 6c 0b 68 3e 92 9f 87 3d f8 94 86 bd 7e b7 5e 3d
       0.22660607 0.066222325 -0.06571382 0.05437421
000300 20 a2 09 3d 1c e5 03 3e c9 5b 0c be b0 42 0e 3e
       0.03360188 0.12880367 -0.13706888 0.13892627
000310 37 fe b8 3d 5a 46 44 3e db e4 87 bd d7 2b 29 be
       0.09032863 0.19167462 -0.066354476 -0.1652063
000320 13 8a 69 3d 66 63 16 3d ac a5 66 bc 4d 25 37 be
       0.057016443 0.036715887 -0.014077585 -0.17885323
000330 4b f1 f6 bc f1 dd 95 bc 94 63 dd bd 14 e6 f6 3d
       -0.030144354 -0.018294306 -0.10810009 0.12055603
000340 5d ad b7 3d 40 98 2d bd e7 10 15 ba c7 8b e9 3d
       0.08968613 -0.042381525 -0.00056864176 0.114036135
000350 df db ff 3d bc 91 06 be 62 55 ca bd 66 ed 90 bd
       0.12493109 -0.13141531 -0.09879567 -0.0707653
000360 f1 3b 18 3d 97 37 74 bd 4b 15 30 be 7c d8 35 3d
       0.03716654 -0.059623327 -0.17195623 0.04439591
000370 86 41 e7 3d 23 80 11 be 86 43 ec 3d fd 7d ca 3d
       0.112917945 -0.14209037 0.115363166 0.098873116
000380 2c 44 22 3e 7d ba fc bb e5 49 cd bd bb aa 5b be
       0.15846318 -0.007712661 -0.1002386 -0.21451847
000390 6c 67 dd 3c 95 92 b4 3c 8d 87 5a 3d 12 73 f1 bc
       0.027026854 0.022042552 0.053351928 -0.029473815
0003a0 14 62 8f 3e 82 b8 91 3d a4 da f2 bd 57 3d 73 3d
       0.28004515 0.0711527 -0.11858109 0.05938467
0003b0 50 34 e4 bc 97 0e cb bd 09 7c 1a 3e 44 7b e2 bc
       -0.027856976 -0.09914892 0.15086378 -0.027646668
0003c0 8e 84 03 3e 9b 52 a0 3b 44 95 81 3a 2b 91 71 bd
       0.12843534 0.00489266 0.0009886404 -0.058976334
0003d0 95 97 7d bd 84 0b 36 3e ab 8c 8f bc 30 55 21 3e
       -0.061912138 0.1777783 -0.01752313 0.15755153
0003e0 0a fd 17 be a0 b3 3a 3e e5 26 c4 3d 30 f3 33 be
       -0.1484262 0.18232584 0.09577731 -0.17573237
0003f0 c7 a1 ee bd cb ed 24 3e 7b 2b 09 3e cb f2 70 bd
       -0.1165195 0.16106336 0.13395493 -0.058825295

weight_hh_l0 f4 [200, 50]
000000 87 7c a6 3d b6 37 4c bd 76 93 58 be 8a e7 90 3d
       0.081292205 -0.049857818 -0.21150002 0.070754126
000010 d4 a2 9a be f4 b1 9f 3d 8d d5 35 3d 4d db 9f 3e
       -0.30202353 0.07797614 0.04439311 0.31222
000020 3f e4 4c 3b c7 5f 21 3e 8c 19 88 be b9 b3 83 be
       0.0031263975 0.15759192 -0.2658199 -0.25723055
000030 e7 07 07 be d2 bb 34 3e dc c8 8a bd 77 bb 3a 3e
       -0.13186608 0.17649773 -0.06776592 0.18235575
000040 82 28 dc 3c e6 c8 34 bd 15 76 49 bd 9e 37 47 3d
       0.026874784 -0.044136904 -0.049184877 0.048637025
000050 6d 60 09 3e 6e 08 8a be c6 39 21 3e c0 27 b2 3d
       0.1341569 -0.26959556 0.15744695 0.08698988
000060 92 58 64 3d fb b1 1f be ef fe 4b be e8 6a f5 3d
       0.05574853 -0.15595238 -0.19921468 0.119832814
000070 48 6c 00 bd cf 79 c0 bd ce 86 89 be f4 2c b0 bd
       -0.031353265 -0.09398233 -0.2686066 -0.08602324
000080 ac 3f a4 bc 2a 8c d8 be 4a d7 51 bd 59 64 f5 3c
       -0.020049892 -0.42294437 -0.051230706 0.029955076
000090 1d 01 57 3d 95 74 83 3c a5 b8 94 3d e8 4f 9d 3d
       0.052491296 0.016046802 0.07261781 0.076812565
0000a0 59 f7 a9 3b 0c ab 95 be b6 81 f8 3d 41 30 ef bd
       0.005186957 -0.2923206 0.121341154 -0.116791256
0000b0 f1 77 89 be 7f f2 16 3d 49 6c 8f be 9c cb 0b 3e
       -0.2684932 0.036852356 -0.28012303 0.1365189
0000c0 75 1f f3 bd 9c ae 37 be 34 f6 2b 3e da 59 13 bc
       -0.11871234 -0.17937702 0.16793138 -0.00899359
0000d0 46 48 8f be c8 33 b5 bd 6d 0c 4f 3d ce 54 1a 3e
       -0.27984828 -0.08847767 0.05054896 0.15071413
0000e0 ef d6 66 3e 8e 0a 4a 3e e4 9c c9 3d da 94 9a 3d
       0.22542928 0.19730589 0.09844378 0.075479224
0000f0 21 f3 13 be d2 97 17 be 14 48 9a 3b e3 82 8a 3d
       -0.14448215 -0.14804009 0.0047082994 0.06763246
000100 85 35 3f 3d 6f 61 2e 3e 57 61 8c bd 73 c8 f9 bd
       0.0466819 0.17029355 -0.068545036 -0.12196436
000110 5f 59 ae 3c f7 d3 26 bd 46 2c aa 3d e5 e7 f3 3b
       0.02128285 -0.04072949 0.08309226 0.0074434155
000120 00 6d af 3d 6e 03 93 ba b3 86 0a 3e 78 05 67 bc
       0.08565712 -0.0011216232 0.13527946 -0.014100425
000130 a5 2b c3 bd 28 d6 74 bd 41 e8 ad bd 24 a1 11 bc
       -0.09529809 -0.059774548 -0.084915645 -0.008888517
000140 20 12 68 be 03 91 a6 3d 3d c0 77 bd f8 82 42 be
       -0.22663164 0.081331275 -0.060486067 -0.18995273
000150 05 33 90 bd ac 1e 7f be 97 22 52 be 6f 69 d6 bd
       -0.07040981 -0.24914044 -0.20521007 -0.104693286
000160 18 b7 c0 bd 1e f4 99 3e 33 31 79 bd 1a 25 9e be
       -0.09409922 0.3006906 -0.060837936 -0.3088768
000170 28 6e 87 3d 0f 41 27 be 7d 81 cb 3d 73 f9 a4 3c
       0.066128075 -0.16333412 0.09936807 0.020138478
000180 88 17 5d be 62 c9 83 3d d1 69 fd 3c 65 47 05 bc
       -0.21591008 0.06434895 0.030934246 -0.008134698
000190 7e 4a 3a 3d 24 e8 d2 3d c7 cc 36 bd 56 11 a5 3d
       0.045481198 0.102981836 -0.044628885 0.08059947
0001a0 09 79 79 bd 7e de ce 3d 94 ba 86 bd bc 6b e7 bc
       -0.060906444 0.10101031 -0.06578556 -0.028249614
0001b0 03 c5 04 bd be e8 1d 3d d1 62 4c be 56 25 07 be
       -0.032414448 0.03855204 -0.1995957 -0.13197836
0001c0 05 81 aa bd 1f bf 15 3e 62 e1 3a bd 3a 55 26 3e
       -0.0832539 0.14623688 -0.045625098 0.16243449
0001d0 4b 3f ee bb 44 8f c5 bd b2 b8 a8 bd e6 18 9d 3d
       -0.0072707287 -0.096464664 -0.08238353 0.076707646
0001e0 3c ed 32 3e 05 58 85 bd ac 04 33 3c 48 5e 1a bd
       0.1747331 -0.06510929 0.010926407 -0.03768757
0001f0 6c 42 f0 3c 98 38 27 be a3 c4 24 bd 39 e5 d2 bc
       0.029328547 -0.16330183 -0.04022659 -0.025744068
000200 91 53 17 bc 93 27 27 3d b7 fb e3 bd 9b 4f 51 3d
       -0.009236232 0.040809225 -0.11131995 0.05110131
000210 d3 3d 59 bd 49 28 7a be 5f 6c 25 be 1d 29 77 3d
       -0.053037476 -0.2442943 -0.16154622 0.060341943
000220 50 30 40 bd 85 9b ee bd d8 53 fe bc b5 13 88 3d
       -0.046921074 -0.11650757 -0.03104584 0.06644384
000230 85 a0 07 be 7a 07 c8 be 82 7b 9b 3b d1 f2 a8 bd
       -0.13244827 -0.39068204 0.004744948 -0.082494386
000240 21 f4 a3 be 5c 3d 17 3e 7f 11 d2 bc c1 55 17 be
       -0.32022193 0.147695 -0.025643108 -0.14778806
000250 3c cf 1b 3e 7b fa e3 bd 21 dc 6f 3e 49 5c 56 3d
       0.15215772 -0.1113176 0.23423816 0.052334104
000260 a8 c1 a1 be 03 9c de 3d 81 3b 5e be 79 31 0c bd
       -0.3159306 0.108696006 -0.21702386 -0.03422687
000270 8f 25 e9 3d 50 5d 1e 3e fa 72 8f bc 8f 43 a7 3d
       0.11384117 0.15465283 -0.01751088 0.08167183
000280 19 ce 55 be 64 2a 81 bd 19 7d 82 3b 03 61 3a 3e
       -0.20879401 -0.063069135 0.003982198 0.1820107
000290 27 82 a4 3c 28 b3 5e 3e 1a 5a 07 be 50 f9 4d be
       0.020081593 0.2174803 -0.13217965 -0.20114636
0002a0 37 9a 69 be d0 f0 5c 3e 94 b3 5c 3e b9 6d 85 be
       -0.22812735 0.21576238 0.21552879 -0.26060274
0002b0 ae 9d 31 3e 07 ec c5 3d 3d 14 1e 3e 8d a3 04 bc
       0.17345306 0.09664159 0.15437408 -0.008095634
0002c0 27 5d 24 be 88 35 fa bd 44 2c 01 3e 79 68 51 bb
       -0.1605116 -0.122172415 0.12614542 -0.003195314
0002d0 b0 84 c4 be 0b 14 a4 bc 80 45 81 bd e0 ec b4 bd
       -0.38382483 -0.020029088 -0.06312084 -0.08834243
0002e0 18 78 08 bc f7 1b a5 bc 8d f3 d8 bd 95 7b a1 bc
       -0.008329414 -0.020154936 -0.105933286 -0.019712249
0002f0 9f a2 d9 bd e3 57 17 3e eb 34 b4 bd 28 d5 69 be
       -0.10626721 0.1477962 -0.08799156 -0.22835219
000300 8d 1d d4 3d 91 71 27 be bc 9e 72 bc 7c 96 d0 3b
       0.10357199 -0.16351916 -0.014808353 0.0063655954
000310 13 94 b7 be 22 0b f6 3d 35 02 2f 3e 4b f8 32 3d
       -0.3585516 0.12013842 0.17090686 0.043693822
000320 9c 65 89 3d ed b8 0d 3e 3b 29 21 be 13 ef c6 bb
       0.067088336 0.13840075 -0.15738384 -0.0060709803
000330 61 d7 c1 bd 13 3b f4 bc 7a b9 3b 3e b3 e9 82 3e
       -0.094649084 -0.029813325 0.18332472 0.25568923
000340 13 55 05 be 40 8d 81 3e 71 50 37 be a7 a9 7a 3d
       -0.13020734 0.25303078 -0.1790178 0.06119695
000350 36 0e 02 3e 03 9b 18 3e bf 7a cc bc 3a d0 53 3e
       0.12700734 0.14902882 -0.024960874 0.20684901
000360 d5 83 38 be 50 bc 13 bd 11 2f 3f be f3 9e 25 3d
       -0.1801904 -0.03606826 -0.18670298 0.04043479
000370 cd 56 28 3d 1e 39 b1 be 74 1b 2b 3e 0b 46 b7 3d
       0.041098405 -0.3461389 0.16709691 0.089489065
000380 ac b4 bd 3c 66 ea 0a 3d 54 bc 87 be 50 32 98 3d
       0.02315744 0.033914946 -0.2651087 0.07431471
000390 7a 09 02 bd ec 1e 1e bd e3 66 3f be 1d 0a 5e 3d
       -0.03174732 -0.03860371 -0.18691592 0.054208864
0003a0 3b 25 cd 3d e9 ed d3 be b5 a5 84 be 8e 0e 82 3d
       0.10016867 -0.4139245 -0.25907674 0.06350432
0003b0 e4 89 6c bd 83 bc 18 3d 13 a4 e5 bc e9 29 81 3e
       -0.05774869 0.037289154 -0.028032338 0.25227287
0003c0 34 a6 c1 3d 13 5b 87 be 26 35 26 be 03 6d 4b be
       0.09455529 -0.26436672 -0.16231212 -0.19865803
0003d0 2e 88 92 be fc df 91 3d 77 ca eb be 75 b0 85 bc
       -0.28619522 0.071228 -0.46052906 -0.016319493
0003e0 34 f9 80 3c b4 65 ce bc f9 5e 05 3e 70 19 e9 3d
       0.01574383 -0.02519498 0.1302451 0.11381805
0003f0 aa 2b 57 bd a7 b8 c1 3d 65 32 1e be bb 73 8c bc
       -0.052531876 0.09459048 -0.15448911 -0.017145028

bias_ih_l0 f4 [200]
000000 24 c8 7b 3e 71 fc ab 3e 4c f2 86 3d ed 26 5a 3d
       0.24588066 0.33591035 0.06589183 0.05325978
000010 66 ac 7f 3e d2 4d c2 3d 63 0e 71 3d 40 eb 11 3e
       0.24968109 0.09487499 0.05885161 0.14249897
000020 b1 a6 ba 3d 93 e3 a3 3d d7 ba af 3d 17 6f 61 3e
       0.09113825 0.08002391 0.08580559 0.22015034
000030 a9 ef 22 3e 47 85 2c 3e 35 a9 4a 3e 05 30 f7 3d
       0.15911736 0.16847716 0.1979111 0.12069706
000040 0f 11 0b 3e a5 56 80 3e 37 98 6b 3e 39 71 b7 3e
       0.13580726 0.25066105 0.23007284 0.3582857
000050 5f 7d c3 3d f6 4a 29 3d 9f a0 68 3e 7a df 38 bd
       0.09545397 0.041331254 0.22717522 -0.045135
000060 3c 41 19 3d b6 19 8a 3e eb 0b eb 3d 47 e0 12 3d
       0.037415728 0.2697274 0.114768825 0.03585842
000070 3d fb 0d 3e d8 7f 5f 3d 1a d0 00 3e ad 8e 1b 3e
       0.13865371 0.05456528 0.12579384 0.15191145
000080 8f 62 fc 3d 70 76 af 3d 3a e4 5e 3e e8 b1 13 3e
       0.12323486 0.08567512 0.21766749 0.14423335
000090 4b a5 28 3e 9c bb b2 3e 07 20 17 ba 37 b3 20 3e
       0.16469304 0.3490876 -0.00057649653 0.15693365
0000a0 ed 00 4a 3e b5 46 99 3e 72 d0 07 3e 3e ba a9 3c
       0.19726916 0.29936758 0.1326311 0.02071869
0000b0 53 a4 72 3e 84 4b aa 3e 34 99 1e 3e 9e 4c 8f 3e
       0.23695497 0.3326074 0.1548813 0.27988142
0000c0 fa 0d f2 bc 8d 39 0b 3e 5c ae 17 be 81 90 37 be
       -0.02954768 0.13596173 -0.14812607 -0.17926218
0000d0 c3 31 ca bc 45 b6 a8 bd 6f fe b6 3d 85 0a e3 bd
       -0.024681931 -0.0823789 0.08935248 -0.11085991
0000e0 f0 ab 9a 3d 92 d7 84 bd 7f cb 05 bd 49 8a 2d 3e
       0.07552326 -0.06486429 -0.032664772 0.16947283
0000f0 4c a7 e1 3d 6b e4 23 bd 0d f5 42 3d 3d 60 c5 3d
       0.110182375 -0.04001276 0.04759698 0.096374966
000100 25 86 88 3d 1e ed 09 be ae 7c c7 bd 34 df d9 3a
       0.06666211 -0.1346936 -0.09740578 0.0016622306
000110 b2 ce 9b 3c be b6 59 be be 19 9b bd bf 91 50 3d
       0.019019458 -0.21261117 -0.07573269 0.050920244
000120 0a 6f d8 bc 99 be f5 3b 09 3c df 3d ed 6d 83 be
       -0.026420135 0.0074995277 0.10900123 -0.25669804
000130 6f 91 c1 bd d0 e4 0d 3d 63 79 bc 3d 65 11 0a bd
       -0.094515674 0.03464204 0.0920284 -0.033707995
000140 95 70 b1 bd 46 0c ef 3d 56 20 08 be 65 1a aa 3d
       -0.086640514 0.11672263 -0.13293585 0.083058156
000150 81 42 dd 3a ff 4e 0f be 8b 17 af bb 7c 9d 01 be
       0.0016880782 -0.13994978 -0.0053433827 -0.12657732
000160 89 0b dc bd 6a 9e 9a bd d3 11 63 3d e3 91 20 be
       -0.10744388 -0.07549746 0.05543692 -0.15680651
000170 07 7e 1e bd 69 00 6b bc 43 fe 3d 3e 69 c8 ab bd
       -0.038694408 -0.0143433595 0.18554024 -0.083878346
000180 38 ee ab bd e3 1a 10 be 27 df 0c be f8 94 56 bd
       -0.08395046 -0.14072756 -0.13757001 -0.05238816
000190 68 08 30 3d 05 68 b2 bd 37 98 ec bc 27 5e 5a 3c
       0.042976767 -0.087112464 -0.028881175 0.013328112
0001a0 5b b7 d3 bd 8b 7a e7 bc a8 93 77 bd 4b bd f4 3d
       -0.10337707 -0.028256675 -0.06044355 0.11950167
0001b0 50 1a 7c 3d a2 f4 04 3e ca 6d 20 bd 10 16 48 bd
       0.06154853 0.12983945 -0.039167203 -0.048849165
0001c0 c7 33 8a bc 83 c4 0b bd bb fe 2d bd 7e 6c a9 3c
       -0.016870392 -0.034122955 -0.042479258 0.020681616
0001d0 95 7b 93 bd 43 05 1d 3c 9a 2d e5 bd 96 89 ac bd
       -0.07201306 0.009583774 -0.111903384 -0.0842468
0001e0 30 45 9c bd 75 f7 5e bd 68 91 c7 3d 4b 0c c8 3d
       -0.07630384 -0.054435212 0.09744531 0.0976797
0001f0 66 94 47 bc c1 75 bb bc 51 8e 9c bc d8 e2 18 3d
       -0.012181377 -0.022883298 -0.01911083 0.03732571
000200 db e3 7a bc 6a 7c 65 bc 22 bc 48 bd c8 25 d7 3c
       -0.015313114 -0.014006713 -0.049007542 0.026263133
000210 9d 06 cb bd 95 ff bb bd 87 0c 19 be 2c 65 a6 bd
       -0.09913371 -0.09179608 -0.14946185 -0.08124766
000220 c9 94 10 be b6 fa b4 bd 72 d5 47 bd 67 57 fa 3d
       -0.14119257 -0.08836882 -0.04878754 0.12223702
000230 93 d2 a4 3d 7e 20 52 bd 5e d6 a7 bd 9a d3 1b be
       0.08047976 -0.05130052 -0.08195184 -0.15217438
000240 6d 75 15 be 5e 5e 08 3e c1 9b 58 be 3e c0 81 bd
       -0.14595576 0.13317248 -0.21153165 -0.063354954
000250 81 c1 e3 bb a8 37 35 be 23 c0 6f 3e f2 27 79 bc
       -0.0069505577 -0.17697012 0.23413138 -0.015207278
000260 0f 44 c5 3c 31 e0 f6 3d 86 6e c9 bb c6 38 eb 3d
       0.024080304 0.1205448 -0.0061472086 0.11485438
000270 fe c1 90 3d f7 16 e0 3d 85 6c 95 3e e5 28 97 3c
       0.07068251 0.1094188 0.29184356 0.018452117
000280 3d 85 b0 3e 1f 1a 80 3e 57 e4 2e 3e 20 46 57 3e
       0.34476653 0.2501993 0.17079292 0.21022844
000290 2e 5c 39 bb 09 c5 1b 3d 1d 65 27 bd 08 6a 4a 3e
       -0.0028283703 0.038029704 -0.040867914 0.1976701
0002a0 01 da 54 3e b8 01 8b 3e 16 28 0c 3d 57 7c 4b 3e
       0.20786287 0.2714975 0.034217916 0.1987165
0002b0 77 e5 b7 3c a2 5d 39 3e d4 53 3e 3d 7f 11 70 3e
       0.022448285 0.18102124 0.046466663 0.23444174
0002c0 d0 a4 27 3e 59 f8 7c 3c 93 52 81 3e 3d a7 03 3e
       0.16371465 0.01544007 0.25258312 0.12856765
0002d0 83 b7 4c 3e 2c 7d 01 3e 96 1e 6d 3d eb cb be 3d
       0.19991879 0.12645406 0.057890497 0.09316238
0002e0 50 8f 24 3e ff d3 19 3e 0e 76 f4 3d 77 3f 2a 3e
       0.16070294 0.15022276 0.1193658 0.16625772
0002f0 cf 5f 00 3e b4 eb 37 3d 0d ad 60 3d 70 87 13 3e
       0.12536548 0.04490252 0.054852534 0.14407134
000300 1f ef e9 3d 8f 42 2f 3e 0e 2b da 3e e4 52 b2 3c
       0.11422562 0.17115234 0.42610973 0.021768041
000310 ae 20 2c 3e c3 82 76 3e 55 fe 11 bc 1d 09 60 3e
       0.16809341 0.24073319 -0.008910735 0.21878476

bias_hh_l0 f4 [200]
000000 c3 5b 3a 3e 7e 0e a3 3e c3 09 0d 3e 77 5d 87 3e
       0.18199067 0.31846994 0.13773255 0.26438496
000010 b7 fc 04 3e 2a d0 47 3e 8d aa 05 3e df 05 41 3e
       0.12987028 0.19513002 0.13053341 0.18849896
000020 d8 33 62 3d e8 7f da 3d 65 a6 51 3e e4 64 e8 3d
       0.055225223 0.106689274 0.2047363 0.11347368
000030 d9 da f8 3d 51 11 43 3e 80 17 02 3e 7e 28 f6 3d
       0.12151117 0.19049574 0.12704277 0.12019442
000040 f8 f0 95 3d 0e 97 6f 3e d4 e7 ea 3d 06 80 52 3e
       0.07321352 0.23397467 0.11469999 0.2055665
000050 21 76 21 3e 14 a6 03 3e 50 ab 9e 3e ca 60 1a 3e
       0.15767719 0.12856323 0.30990076 0.15075985
000060 af 33 eb 3d 0d 58 47 3e 45 22 4b 3c bb 37 b6 3d
       0.11484467 0.19467182 0.012398307 0.088973485
000070 11 ff 19 3d ad d3 6b 3d e7 30 dd 3d c9 39 56 3e
       0.037596766 0.057574917 0.10800343 0.20920481
000080 5b 36 0b 3e ac 2a 2f bd ca 08 9a 3c f6 88 2b bc
       0.13594954 -0.042765304 0.01880302 -0.010469666
000090 69 d6 09 3e bc 14 a1 3e ed ad 41 3d 8a b3 82 3d
       0.13460697 0.31461132 0.04728501 0.063819006
0000a0 2a 5f 9c 3d 7c d0 30 3e 72 21 07 3e a0 b0 a4 ba
       0.076353386 0.1726703 0.13196352 -0.0012564845
0000b0 dd c6 18 3e d6 33 99 3e 78 c5 20 3e f6 c5 a7 3e
       0.1491961 0.2992236 0.15700328 0.3276822
0000c0 c4 46 5a 3e 1a e1 50 3b 71 0c e1 bd 5b 54 2b be
       0.21316057 0.0031872452 -0.10988701 -0.16731398
0000d0 62 d2 58 bb 2d fb 53 3c cd 56 3e bd 22 b9 49 3c
       -0.0033084382 0.012938303 -0.0464695 0.0123122055
0000e0 c5 5f a0 3d 7c fc db 3d 15 8b 55 be 95 1c be 3d
       0.078307666 0.10741517 -0.20853837 0.09282795
0000f0 98 d1 18 bd 8f 42 94 bd 99 60 42 be f4 6e 6a 3d
       -0.03730926 -0.072392575 -0.18982162 0.05723472
000100 a7 ad e2 3c 24 37 e8 3c 1b 14 e5 3d da e9 99 bd
       0.027670695 0.028346606 0.111854754 -0.07515307
000110 69 d4 83 bd af 3d fb bd 63 75 6f 3d 8d 00 b1 bd
       -0.064369984 -0.122676246 0.058461558 -0.08642683
000120 99 78 be bd c8 52 fe 3d 07 18 7f bd b5 2e 04 be
       -0.09300346 0.12418133 -0.062278774 -0.12908442
000130 e9 1e 34 3d 29 b0 bc bd bc 6f 8a 3d 18 50 5f bd
       0.04397479 -0.092132874 0.06759593 -0.054519743
000140 a4 38 f2 3d fc 85 c4 3d 4f 7b a5 bd da 21 5d 3e
       0.118272096 0.09595868 -0.0808016 0.21594945
000150 ff 39 07 bd 70 5f 08 be cb e5 38 3d 70 b9 18 3b
       -0.033014294 -0.13317657 0.045141023 0.0023303889
000160 ca 5f 0e be fe 9a 1e 3e 86 d5 39 bd c9 fc 22 bc
       -0.13903728 0.15488812 -0.045369647 -0.009947964
000170 34 41 ac 3d d2 2f 4e 3c 70 63 98 3d b2 0c 07 3c
       0.08410874 0.012584643 0.07440841 0.008242773
000180 65 b4 ca 3d 35 1a b7 bd db 9d 40 3d 70 4b 71 3d
       0.09897689 -0.089405455 0.047025543 0.058909833
000190 9e 5f 50 3e 9d 8c 68 3d c6 2e c8 bd 93 4b 11 be
       0.20348975 0.056774724 -0.09774546 -0.14188986
0001a0 36 3c 7d be 5f cd a5 bd e7 13 0d 3e f9 6d 6e 3e
       -0.2473 -0.08095812 0.13777123 0.23284139
0001b0 a6 f2 fe bc 60 5b c7 3d 77 84 68 be da 49 c6 bd
       -0.031121563 0.09734225 -0.22706781 -0.09682055
0001c0 10 d5 f1 bb be 35 2b 3e 52 85 9b bd 73 75 37 bd
       -0.0073801354 0.1671972 -0.07593788 -0.044789743
0001d0 82 89 4c 3d 64 a5 57 be e4 55 04 be 00 f8 f9 3c
       0.049935825 -0.21059185 -0.1292339 0.030513763
0001e0 ad cf 21 3d fe 3c 4a be 5e be f3 bc 40 08 e7 bd
       0.039504696 -0.19749829 -0.02975386 -0.112808704
0001f0 df 90 df bd 82 9e 22 3c f2 12 52 3d d4 35 48 3e
       -0.10916304 0.0099254865 0.0512876 0.19551784
000200 e2 79 8f bd 6a 27 88 3d b2 34 1a be 9d 6b c7 bd
       -0.07005669 0.06648143 -0.15059164 -0.097373225
000210 65 1b 19 3e 94 a2 e3 bd f4 1f 08 be a7 10 4a 3c
       0.14951856 -0.11114994 -0.13293439 0.012333072
000220 63 da d5 3d 7b e7 d9 bd 2e 81 18 be 9e 67 46 3e
       0.104420446 -0.106398545 -0.14893028 0.19375464
000230 ee 4a b1 bc 2f 88 0f be 2e fb 55 3b 24 d8 8a bd
       -0.021642175 -0.14016794 0.0032650935 -0.06779507
000240 3f 7d d3 bd 7b c2 57 bb 6f 23 6c 3d d2 bd c0 3d
       -0.10326623 -0.0032922316 0.05765098 0.09411205
000250 92 fe 92 3d 1c b0 2e be 65 81 8e 3e cd 93 74 3e
       0.07177462 -0.17059368 0.27833095 0.23884507
000260 18 8c 81 3d ad 69 57 3e 05 eb ca 3c 54 e4 97 3d
       0.06325549 0.21036406 0.02477027 0.07416597
000270 40 27 25 3e 73 9c 10 3e 7f 8c 28 3e e2 32 91 3c
       0.16128254 0.1412218 0.16459845 0.017724458
000280 c4 e7 1a 3e 25 c0 6a 3d 07 d6 af 3e 3f 03 a4 3e
       0.15127474 0.05731215 0.34342977 0.32033727
000290 ab f8 7d 3c e8 52 90 3d 79 b8 be 3d 31 a3 70 3e
       0.015501182 0.07047063 0.09312529 0.23499753
0002a0 c4 2f 7e 3e 9b 00 a4 3d f0 ed c1 3d c2 bf ae 3d
       0.24822909 0.08007928 0.09469211 0.08532669
0002b0 a2 1e 92 3d 09 48 53 3d 32 c6 3c 3d ec 5b b0 3e
       0.07134749 0.05158237 0.04608745 0.3444513
0002c0 42 82 db 3d 5e ac 36 3e 55 82 5d 3d 4a c1 1c 3d
       0.10718204 0.1783919 0.054079372 0.038270272
0002d0 bd bd 37 3e d4 74 1d 3e c6 69 81 3e 4e 54 66 3e
       0.17943473 0.15376598 0.2527601 0.22493097
0002e0 d0 83 96 3d 27 5a 82 3d 74 f5 21 3d 6e 38 9c 3d
       0.0734936 0.063648514 0.039540723 0.076279506
0002f0 50 a7 84 3e ef e0 c2 3c 2a 37 24 3e 11 72 4f 3e
       0.259089 0.023788897 0.16036668 0.20258357
000300 88 a3 cc 3d 46 2b 38 3e 2b f6 d7 3e da cd 37 3e
       0.099921286 0.17985258 0.4218 0.1794962
000310 ad ee 5f 3e 94 bc 33 3c 6e 61 7d 3e 12 e6 80 3d
       0.21868391 0.0109702535 0.24744198 0.062938824

weight_ih_l0_reverse f4 [200, 100]
000000 a5 3f ae bc e9 20 03 be 30 50 d1 bd db 97 88 bd
       -0.021270582 -0.12805523 -0.10220373 -0.06669589
000010 4f 20 da bd cb 58 87 3d 79 01 ba 3c 18 0d b3 bc
       -0.106506936 0.06608733 0.02270578 -0.02185683
000020 05 95 72 3d ac d5 d1 3d 09 23 69 bd ea 8d 6c bd
       0.059224147 0.10245833 -0.056918178 -0.057752527
000030 d2 52 3d 3e 70 c6 00 bd c6 eb a4 3d 0c c7 d0 bd
       0.18488625 -0.031439245 0.08052783 -0.10194215
000040 6a e8 1b 3e e7 fd 53 3d b7 36 11 be 28 0b 85 bd
       0.15225378 0.051755812 -0.14181028 -0.064962685
000050 1c 53 be 3c 2e 7b 2c 3d 6f 2a 5f bc a9 29 8f bd
       0.023232989 0.04210966 -0.013620957 -0.06990368
000060 59 08 bc 3d d8 ea 4a 3e 46 c2 0b 3e 42 ed 83 3c
       0.0918128 0.19816148 0.13648328 0.016104344
000070 af 61 10 3e af 3b 7b 3c b1 60 ed bd 7b d3 be bc
       0.14099763 0.015334054 -0.11590708 -0.023294201
000080 82 da 42 bd 83 9a aa bd 06 88 88 3d bd d1 6c bd
       -0.047571667 -0.08330252 0.066665694 -0.05781721
000090 b6 72 a9 bd 7a 88 82 3d 77 e4 c7 bd 1a 47 29 3a
       -0.082738325 0.06373687 -0.09760373 0.00064574333
0000a0 c8 13 44 bd 23 d5 eb bc 74 0e d5 3c f7 e2 1a be
       -0.047870427 -0.028788155 0.026007868 -0.15125643
0000b0 ac e4 f8 bd 14 8e 81 bd bd 30 62 bc 02 bd 2b 3d
       -0.12152991 -0.063259274 -0.013805565 0.0419283
0000c0 87 48 07 3e f3 14 1b 3e d1 07 10 3d c1 e3 c6 3b
       0.1321126 0.1514471 0.035163704 0.006069631
0000d0 e6 e4 74 bd 55 53 5d 3e 39 e5 45 bd e1 8f a5 bc
       -0.059788607 0.2161382 -0.048314307 -0.020210208
0000e0 11 18 f5 bd 13 d6 ec bd f0 4e 1b 3e 01 77 e2 3c
       -0.11967481 -0.11564269 0.15166831 0.027644636
0000f0 ca 50 7f 3d df a9 7c 3d 1c eb 94 3d 21 3e 9e 3d
       0.062332906 0.06168544 0.07271406 0.07726694
000100 cf ba 18 bb 9a 0b 16 be 3a d6 95 3d 03 6f f8 3d
       -0.0023304706 -0.14652863 0.07316251 0.12130549
000110 fe 3a 06 3e b9 cd 89 3d 9a 21 f2 3d 51 33 84 bd
       0.13108441 0.067286916 0.11822815 -0.064551
000120 65 c2 59 bd f8 ca 01 bc 63 c1 7a bd dd ec 02 3e
       -0.053163905 -0.007921927 -0.061219584 0.12785669
000130 96 b9 32 be ae 0f 38 bc 55 9d 21 bc b7 7e cb bc
       -0.17453608 -0.011234207 -0.009864171 -0.024840696
000140 63 2b bc bb 03 5f 99 bd bc 1a 2d bd 78 e7 7b 3c
       -0.005742477 -0.07488825 -0.042261824 0.015375011
000150 e9 44 fd 3d 13 42 c9 3d c4 3f 1e bd 50 e3 52 be
       0.12366659 0.09827056 -0.03863503 -0.20594525
000160 1b 41 a6 3d 03 57 1a 3e ce c7 b9 bc 83 e6 1d 3c
       0.08117887 0.15072255 -0.022678282 0.009637478
000170 ab d2 81 bd 59 9a a1 bb ea 92 ca bd a4 55 fc ba
       -0.0633901 -0.0049317298 -0.09891303 -0.0019251597
000180 52 91 b5 bd 72 d6 71 bd 18 d6 0b be 0f 1e db 3c
       -0.08865608 -0.0590424 -0.13655889 0.026747731
000190 6b 12 66 bd 7e dc 93 3d 80 97 e4 bc 48 f5 73 bd
       -0.05616991 0.0721979 -0.027904272 -0.05956009
0001a0 c7 d5 26 be 80 70 0a 3d d6 c9 3d be a8 c1 be 3d
       -0.16292487 0.033798695 -0.18534026 0.09314281
0001b0 d5 5c 0f be 83 3c a1 3c 2e fc 11 be b2 eb a8 3d
       -0.14000256 0.019682175 -0.14256355 0.0824808
0001c0 71 a1 57 bb 1e ac 96 bd 17 5c 01 3e 12 f0 1b bd
       -0.0032902623 -0.073570475 0.12632786 -0.038070746
0001d0 cc db b2 3d 72 90 05 3c 48 1b b8 3d 21 7c 1e 3e
       0.08733329 0.008152114 0.089895785 0.15477039
0001e0 d8 52 ce 3d 13 7a 17 be b3 ee 20 3e b5 6f 26 3e
       0.10074395 -0.14792661 0.15716057 0.1625355
0001f0 46 6a ab bd 3e 79 1c 3d 54 1b f4 3d 8e 95 d3 3c
       -0.083698794 0.038201563 0.11919275 0.02582815
000200 f8 87 18 3e 98 2a 05 be cd 11 fd 3d 95 15 20 bd
       0.14895618 -0.1300453 0.12356911 -0.039083082
000210 48 02 3f be 02 a2 10 3c bf 18 c5 3d 74 1b 62 bd
       -0.18653214 0.008827688 0.096238606 -0.055201963
000220 05 7f 0f 3d 98 68 dc bc 71 d7 8c 3d 49 7a 25 3e
       0.035033245 -0.026905343 0.0687703 0.1615993
000230 53 7a 21 3e df a9 3c bc 23 50 82 bc fd f3 f7 bd
       0.15769319 -0.01151511 -0.015907353 -0.12107084
000240 a4 88 26 bd 4c 50 ea 3d 3e 7a 37 bd 2b 99 07 3e
       -0.040657654 0.11441097 -0.044794314 0.13242023
000250 74 90 1e 3d af 74 b1 3b ac 3f 43 3e dc 5f ef 3d
       0.03871198 0.005415521 0.19067258 0.116882056
000260 17 79 0b 3e 53 cc fe 3d a9 74 6c 3e ba fd ec 3b
       0.13620411 0.124413155 0.23091377 0.007232395
000270 3c bb 12 3d bf 41 a5 bd 65 a9 1c 3e 33 b6 d1 3d
       0.035823092 -0.08069181 0.15298994 0.1023983
000280 ca ab e4 bd 18 1d eb bd 53 e5 33 3d e0 e0 c7 bd
       -0.11165579 -0.114801586 0.043919872 -0.097596884
000290 b0 de 15 be a0 80 cf 3d 25 14 01 3d 5d f5 d9 bc
       -0.1463573 0.10131955 0.031513352 -0.026606256
0002a0 11 5e 1f 3e d7 35 15 be 8a 96 9c bd 9c 09 b1 bc
       0.15563227 -0.1457132 -0.076459005 -0.021611027
0002b0 6d 15 84 3b 2c a5 64 bd d0 9c 18 3d ff 7f 87 bd
       0.0040308745 -0.055821583 0.037258923 -0.0661621
0002c0 e3 0f b9 3d ff ac 18 be 03 72 c2 3d 8c 3f 09 be
       0.09036233 -0.14909743 0.09494402 -0.13403147
0002d0 96 b7 19 3d 86 e8 28 3d b5 79 e3 3d 55 b8 48 3d
       0.037528597 0.041237377 0.11107198 0.049003918
0002e0 7b 9c 1c bd e4 63 11 ba 6b 46 2c be c2 01 24 bd
       -0.03823517 -0.0005546196 -0.16823737 -0.04004074
0002f0 87 77 ca 3d 1d 9a 9c bd bc f1 b1 3c c5 3c ad 3d
       0.09886079 -0.07646582 0.021721713 0.084588565
000300 86 7e d0 3d 00 4a 50 3d 9b 26 95 bd 5e 9d 84 bc
       0.101803824 0.050851822 -0.07282754 -0.01618832
000310 ca 2d be bd ce 00 78 bd 81 77 cd 3c c2 de 70 bd
       -0.09286077 -0.060547642 0.025081398 -0.05880619
000320 04 8c 7d 3d 3f 1c 71 3d c1 d8 94 bd 88 90 7f 3d
       0.061901107 0.05886483 -0.07267905 0.062393695
000330 c2 b9 66 3d 13 dc 2a be 1c 8d 0d 3e a6 76 3a bd
       0.056329496 -0.16685514 0.1382336 -0.04552331
000340 a5 93 c3 3d 76 92 88 bc 94 bc 85 3d 20 a8 ae bd
       0.09549645 -0.0166714 0.06530109 -0.08528161
000350 1d ec 7a 3d 67 53 d4 bd c8 fb 9a bd d3 31 a1 3d
       0.06126033 -0.1036747 -0.07567555 0.07870831
000360 0b 27 f3 3d 8d 76 b8 3d 34 c9 88 3d ca 7f c1 3d
       0.11872681 0.09006987 0.066790015 0.09448202
000370 bf d0 df 3c 67 a1 06 be 11 4a 69 3d 47 76 17 3e
       0.027321218 -0.13147508 0.0569554 0.14791213
000380 3b 80 ae 3d 4e 2a 8a bd d0 d3 91 bc c6 6c 6f bc
       0.08520552 -0.0674635 -0.017801195 -0.014613336
000390 0f b8 88 bd 3b 4b 10 be 7f 98 fa 3d f1 d2 55 3d
       -0.066757314 -0.14091198 0.122361176 0.052203123
0003a0 dc 7b 3f 3d c1 c3 28 3e ac b4 96 3d a0 66 7a 3d
       0.04674898 0.16480924 0.07358679 0.061133027
0003b0 fa 1d a1 bd 26 f2 8c 3d 5a 37 8e 3d 1d 24 54 3c
       -0.07867046 0.06882124 0.06944151 0.012948063
0003c0 93 f1 ca 3d f9 06 cb bd f5 5b 97 bd ff 34 cb 3d
       0.09909358 -0.09913439 -0.07390586 0.099222176
0003d0 cb db 21 be 70 3d ad 3d eb d8 5f bd c1 1e d7 bd
       -0.158065 0.08458984 -0.05465023 -0.10503913
0003e0 26 53 74 bd 92 ea 26 3d 94 e1 82 bd cb e2 9c 3c
       -0.05964961 0.040751047 -0.06390682 0.019151112
0003f0 70 29 7a 3c 0d 8d 31 bd ae 38 d4 3d 31 53 52 3d
       0.0152686685 -0.043347407 0.10362373 0.05134887

weight_hh_l0_reverse f4 [200, 50]
000000 b8 c5 ba bd bd 32 ef 3d 94 31 4d 3e 6f 9c 59 bb
       -0.09119743 0.116795994 0.20038444 -0.0033204814
000010 9e e7 96 3d 72 52 22 be 88 54 ac 3d 9d de fe 3d
       0.07368396 -0.15851763 0.084145606 0.12444804
000020 02 f6 f7 3d 0c 10 01 be 00 67 89 3d d7 73 ea bb
       0.12107469 -0.12603778 0.06709099 -0.0071549225
000030 c0 38 05 3e e1 c5 0d be e6 af ce bd 83 c1 40 bd
       0.1300993 -0.13845016 -0.10092144 -0.047059547
000040 3b 50 84 3d 82 64 b6 bd 39 78 0c 3e 76 83 87 bd
       0.06460615 -0.08905889 0.13717736 -0.06616871
000050 3a f4 26 3d b2 04 45 be 74 01 f2 3d 7c 03 8e bb
       0.040760256 -0.19240072 0.118166834 -0.0043339115
000060 c2 e9 ef 3d b1 4a 07 3e e3 9d 6c 3c b1 5d 5a 3e
       0.11714508 0.13212086 0.01444194 0.21324803
000070 ef 9a 9b 3b 3b a7 dd bd ea 8f 94 3d 58 7f d4 bd
       0.004748694 -0.10822912 0.07254012 -0.103758514
000080 73 55 85 ba 87 72 a6 bb 62 13 31 3e 48 fd 9a bc
       -0.001017256 -0.0050795707 0.1729255 -0.018919602
000090 01 3e 47 bd ab 53 a3 bd dc 7f 08 be fd d6 24 be
       -0.048643116 -0.07974943 -0.13330024 -0.16097637
0000a0 f8 37 96 3d c7 f1 0b be ef 28 31 3d e8 4c c6 3d
       0.07334894 -0.1366645 0.043251928 0.096826375
0000b0 8b 58 6b bc ce 94 37 be ea be b1 3a 7e d2 2b 3e
       -0.014364372 -0.17927858 0.0013560925 0.16779515
0000c0 45 ba 47 3e c2 14 32 3d ac 12 2b be 71 fc 2d 3d
       0.1950465 0.043476827 -0.16706342 0.042477075
0000d0 12 58 25 3e 23 f4 58 3d 78 21 35 be 33 05 91 3d
       0.16146877 0.052967202 -0.17688549 0.0708107
0000e0 a8 3d 19 3e f5 c8 12 3e 0f d1 c3 bb ca 59 35 bd
       0.14964926 0.14334472 -0.0059758495 -0.044275083
0000f0 a1 9c e6 3d cf ec 16 be 5e 3f 5b 3e 5c 71 9d bd
       0.11260343 -0.14738773 0.21410891 -0.07687637
000100 8f 63 6e bd b7 e4 b2 3d 6c 4d 5b bd e0 55 1f be
       -0.058200415 0.0873503 -0.053540632 -0.15560102
000110 ff 5a 16 3e 3d 9c 45 bd 3c 7e 4b bc 5b bc 12 3d
       0.1468315 -0.048244704 -0.012420233 0.03582416
000120 a0 15 a1 3d c1 c7 a2 bd 0e 44 00 3e 34 15 c4 3d
       0.07865453 -0.07948256 0.12525961 0.09574357
000130 8e fe 18 3d 08 fc 0e 3d 2b 1f 37 be d7 36 ba bd
       0.037352137 0.034908324 -0.17882983 -0.09092491
000140 80 af e0 3d 31 6e bc 3c 6d c4 16 3e 98 ad 0a 3e
       0.10970974 0.023001762 0.14723368 0.13542783
000150 d0 13 ce bd 62 5c 54 bd 92 4e cf bc 43 e3 81 3d
       -0.10062373 -0.051845916 -0.02530602 0.06342175
000160 c6 f5 36 bb 5a cb b8 3d 5d 44 76 3e d5 d3 4d be
       -0.0027917488 0.09023161 0.24049516 -0.20100339
000170 1e e9 b9 3d f2 10 c1 3d d3 54 e8 bb bf 6b 91 bd
       0.09077667 0.0942706 -0.00709019 -0.07100629
000180 21 ff 14 3e 59 4f 9a bb 20 66 98 3c 7a 19 0d bc
       0.14550449 -0.004709166 0.018603384 -0.008612031
000190 89 03 aa 3d 6c 2a 0b 3e b5 55 fa bc d9 8c eb 3d
       0.083014555 0.13590401 -0.030558446 0.11501474
0001a0 20 e0 83 bc 72 8d 81 39 97 f1 4a 3e bc e9 6d bd
       -0.016098082 0.00024710182 0.19818722 -0.058084235
0001b0 0a 20 7b bd d0 1c 9e bd 7a 4e 31 3e 95 b0 2c be
       -0.06130985 -0.07720339 0.17315093 -0.16864236
0001c0 3b b1 17 3e 2f 6a 93 3d 95 c2 dc 3d 94 84 45 3c
       0.14813702 0.07197987 0.10779301 0.012055535
0001d0 6c e7 84 3d 6c 08 0e be 7a 84 dd bc 29 96 0c 3e
       0.06489453 -0.138704 -0.027040709 0.13729157
0001e0 27 91 4a 3d d2 45 52 3d fd dc 94 bd 5e 07 19 bd
       0.049454834 0.051336117 -0.07268713 -0.03736054
0001f0 5d a7 26 bc 73 e8 18 3e 5e 4b 8d bd bc 7d a0 3d
       -0.010171738 0.14932422 -0.06899141 0.07836482
000200 af ed da bd 58 a5 19 3d 4e a9 ff 3c 51 3e 4e 3c
       -0.10689866 0.0375112 0.03120866 0.0125881
000210 98 15 32 3d 87 5f 6e 3d 09 28 15 bd df b1 1d be
       0.043477625 0.05819657 -0.036415134 -0.15399884
000220 81 67 d2 bd 9c 37 2f 3e 0c f5 2a 3c e9 cf 08 3d
       -0.10273648 0.17111057 0.0104344 0.033401404
000230 1d 4e 72 3d e3 e8 46 bd 6d 38 b9 bd c3 a5 a3 bd
       0.059156526 -0.04856194 -0.090439655 -0.07990601
000240 ee 65 e8 3c 3a 13 29 be f3 1d b0 3c 40 41 5b 3c
       0.028368916 -0.1651124 0.021498656 0.013382256
000250 da 6a 88 3b bb ed ed 3d e9 96 e1 bd 3c 11 51 3e
       0.0041631283 0.11617609 -0.11015112 0.2041673
000260 00 5d 01 3e b5 f8 09 3d 1f 1a 83 be f4 c7 7f bd
       0.12633133 0.03368445 -0.25605866 -0.06244655
000270 6d aa 39 3e 16 8d 21 3d a9 0b 4d 3e d3 69 95 bd
       0.18131419 0.03944119 0.20023979 -0.07295575
000280 88 bd 51 be 1c 0c 9a 3c eb 8a b3 3d 2b e5 d6 3d
       -0.20482457 0.018804602 0.08766731 0.10492929
000290 6f 09 4f be d2 35 32 be c7 11 17 3e d9 da 81 be
       -0.20218442 -0.17403343 0.14752875 -0.2536228
0002a0 ed f7 b1 3e 20 0d 4f 3e 49 8f 93 3d 64 90 59 bd
       0.34759465 0.2021985 0.07205064 -0.053116217
0002b0 46 67 ad 3e cf c4 a0 3d c3 4a 63 3d ae 7a 8d 3e
       0.33867854 0.07850038 0.05549122 0.2763266
0002c0 a8 ac 3f 3e ce a9 d8 3d 29 b0 84 be 3d aa 5b 3e
       0.18718207 0.10579263 -0.2591565 0.2145166
0002d0 e6 4b 77 3e 79 ea 4c be 38 4b 6a 3e 3a 9a 2a bd
       0.24150047 -0.20011319 0.22880256 -0.04165099
0002e0 0a f6 9c 3d 45 8a 7e bd e5 bd 84 bd 0a 1e 95 3e
       0.07664116 -0.062143583 -0.06481532 0.2912448
0002f0 f6 49 bd 3d 87 3a 3b be c2 71 80 3e b0 0a b5 be
       0.092426226 -0.18284045 0.2508679 -0.35359716
000300 35 9a e6 3d 49 62 c6 3d c7 4a 9c 3d 3e b1 8f be
       0.112598814 0.09686715 0.0763145 -0.28064913
000310 59 71 ab 3d 55 b9 dc bc ee 4b fb 3d 86 75 1c 3e
       0.08371229 -0.026943842 0.12270342 0.15279207
000320 61 ef a8 bd 5f 66 a3 3d 0d bc 96 3e e0 13 28 3e
       -0.08248783 0.0797851 0.29440346 0.16413832
000330 f0 95 87 be ed 6f 89 be e3 f5 bd 3e 20 a6 6e 3e
       -0.2648158 -0.26843205 0.3710166 0.23305559
000340 fc 6d 4c 3e da 70 35 be c4 bd d0 bd 58 d5 97 bc
       0.1996383 -0.1771883 -0.10192445 -0.018534347
000350 ea 68 50 3e 36 a8 09 3d f4 1f b6 bd 80 93 69 bc
       0.20352522 0.033607684 -0.08892813 -0.014256358
000360 3d f2 dd 3d 5e 47 93 bd 68 db 92 3d 8a 94 ac 3c
       0.10837219 -0.071913466 0.07170755 0.021066923
000370 88 ce 5f bb 62 69 27 be d8 ea 46 3e 95 3c 23 bd
       -0.0034150202 -0.16348794 0.19425523 -0.039852697
000380 ad 94 1e 3e f2 76 ac 3d 5c 8d 8e 3d e6 fd 9c 3e
       0.15486403 0.084211245 0.06960556 0.3066246
000390 ac 2e 90 be 7f 6b 75 bc 24 d8 16 3e c3 83 c9 3c
       -0.28160608 -0.014979242 0.14730889 0.024598962
0003a0 7b 62 e3 3d ba 15 b6 3d 0f 82 c9 3d c2 c7 c4 bd
       0.11102768 0.08890863 0.0983926 -0.09608413
0003b0 86 29 64 be 21 2c 1b 3e 86 c6 56 3d 49 a0 8c be
       -0.22281465 0.15153553 0.05243542 -0.27466038
0003c0 30 50 0c 3e a4 27 72 be 11 10 be 3d 3a 7a 98 3d
       0.13702464 -0.23647934 0.09280408 0.07445188
0003d0 39 bf 7b bb 0e 70 9c bb f9 87 52 3d f5 46 e0 bc
       -0.0038413538 -0.0047741 0.051399205 -0.027377585
0003e0 a8 74 64 bd ab 00 7b 3e 52 18 52 be 37 21 17 3e
       -0.055775315 0.24511974 -0.2051709 0.14758764
0003f0 e9 b5 49 3d 0c fc 77 3e b2 52 b3 bc f0 c5 41 3d
       0.04924575 0.24217242 -0.021890018 0.04730791
